model_chkpt/aasistl.pth (torch, 422243 bytes, 201 tensors)

pos_S f4 [1, 23, 24]
0	0xbd165c8d	-0.036709357
1	0xbff1110c	-1.8833327
2	0xbe0e066c	-0.13869637
3	0xbfe4f1ee	-1.7886331
4	0x3eb350f9	0.35022715
5	0x3f008cbb	0.5021474
6	0x403b87ef	2.9301717
7	0xbe4f0421	-0.20216419
8	0xbec4d765	-0.38445583
9	0x3ffcc8c1	1.9748765
10	0x3f5f6455	0.8726247
11	0x3e0717bb	0.13192646
12	0x3f5fee05	0.87472564
13	0x3e652b91	0.223799
14	0xbeb63cc9	-0.3559325
15	0x3e57ad08	0.210621
16	0xbe7f4a29	-0.24930634
17	0x3f5276d6	0.8221258
18	0xbeac9548	-0.33707643
19	0x3f421695	0.7581571
20	0xbee9be91	-0.45653203
21	0xbf83d5c5	-1.0299612
22	0xc00f7e87	-2.2420976
23	0xbf391543	-0.7229807
24	0x3cc9368e	0.024562147
25	0xbda1c612	-0.07899107
26	0xbe9e23bb	-0.30886635
27	0xbed2f544	-0.41202748
28	0xc002db35	-2.0446293
29	0x3ebe2207	0.37135336
30	0x3f4e3f26	0.80565107
31	0xbf7847a9	-0.96984345
32	0x3d943e5c	0.072384566
33	0xbdaf7bd6	-0.08568542
34	0xbdf44411	-0.11927045
35	0xbf784d01	-0.969925
36	0x3f17f9e6	0.5936569
37	0x3fde0086	1.734391
38	0x3f40e74b	0.75352925
39	0x3e955460	0.29165936
40	0xbe2f0e37	-0.17095266
41	0xc0138a0e	-2.3053012
42	0xbf96db06	-1.1785591
43	0xbfaad9e3	-1.3347744
44	0xbe8f4b6c	-0.2798723
45	0x3ec4a2ef	0.38405558
46	0xbfc34a46	-1.5257041
47	0x3f60c331	0.8779784
48	0x3f7a9c09	0.9789434
49	0xbe23bcac	-0.15989941
50	0x3fee4cf9	1.861724
51	0xbf988800	-1.1916504
52	0xbfb6e8d5	-1.4289805
53	0xbd93ba2b	-0.07213243
54	0xbeccfce8	-0.40036702
55	0xbf04182c	-0.51599383
56	0x3f5c4781	0.86046606
57	0xbebdc118	-0.3706138
58	0xbeebe8fb	-0.46076187
59	0x3ec16cdd	0.3777837
60	0xbf05d597	-0.5227904
61	0x400242f1	2.0353358
62	0xbf3d57b3	-0.73961943
63	0x3ee97285	0.45595184
64	0xbefe043a	-0.496126
65	0xbe32dc79	-0.17466916
66	0x3f19ab85	0.60027343
67	0xbdfbe3e7	-0.12299328
68	0xbf6cd0f7	-0.92506355
69	0xbf5a9acd	-0.8539246
70	0x4052d77c	3.2944021
71	0x3f3bb76d	0.7332676
72	0xbfafdd51	-1.3739415
73	0x3f20e05a	0.62842333
74	0xbffc1ae3	-1.9695705
75	0xbf03e9fc	-0.51528907
76	0x3ebeeb3b	0.37288842
77	0xbf48640d	-0.78277665
78	0x3f255be0	0.64593315
79	0x3fbb2ff8	1.4624014
80	0x3f3817a9	0.719111
81	0x3fb91691	1.4460012
82	0x3fa33d85	1.2753149
83	0x3f9683f2	1.1759017
84	0x3ec6d950	0.3883767
85	0xbf2584b2	-0.646556
86	0xbee11abe	-0.43965715
87	0x3ed0208a	0.40649825
88	0xbf3641af	-0.71193975
89	0xbe3138d6	-0.17306837
90	0x3f190909	0.5977941
91	0x3e8a9ffb	0.2707518
92	0x3f0eb7eb	0.55749387
93	0xbf34b181	-0.7058335
94	0xc00f9c0b	-2.243899
95	0xbe9f3fb1	-0.3110328
96	0xbf2dab5d	-0.67839605
97	0x3dd6cb84	0.10488036
98	0x3fb8ce20	1.4437904
99	0xbfa14fca	-1.2602475
100	0xbf7e8a52	-0.9942981
101	0xbebe1673	-0.37126502
102	0xbe885517	-0.26627418
103	0xbff7d4a3	-1.9361767
104	0xbf2cdd97	-0.6752562
105	0x3f253c14	0.64544797
106	0xbf068b8b	-0.52556676
107	0x3fd9dac0	1.7019882
108	0x3f9df8f7	1.2341603
109	0x3fcc8454	1.5977883
110	0x4011a38e	2.2756076
111	0x3e36ea18	0.17862737
112	0xbf2a7db1	-0.6659804
113	0x3fa0fdc1	1.257744
114	0x3f020c6e	0.50800216
115	0x3f00b268	0.50272226
116	0xbd24809a	-0.040161707
117	0x3f678c59	0.9044853
118	0x3ef4371a	0.4769829
119	0x3f820cd6	1.0160167
120	0x3fc0c6dd	1.5060688
121	0xbfa998eb	-1.3249792
122	0xc01b7a9c	-2.4293585
123	0x3f7cf690	0.98813725
124	0x3d14c651	0.03632194
125	0x3f308fa1	0.6896916
126	0x3eb4af50	0.35290003
127	0xc011b694	-2.2767687
128	0x3f9a3191	1.2046376
129	0xbefd95a4	-0.4952823
130	0xbf97570f	-1.1823443
131	0x3e414218	0.18872869
132	0xbecd1760	-0.40056896
133	0x3e286677	0.16445337
134	0x3f09b8b1	0.5379744
135	0x3f8c1626	1.0944259
136	0x3f05c2cb	0.52250355
137	0xbf204e37	-0.62619346
138	0x3f4a9b23	0.7914297
139	0xbe945486	-0.28970736
140	0x3ec0b5f7	0.37638828
141	0x3f8359e1	1.0261804
142	0xbfb89e4d	-1.442331
143	0xbf9eb46a	-1.2398808
144	0xbf0126c1	-0.5044976
145	0x3f044057	0.51660675
146	0xbfe618dd	-1.7976338
147	0x3faccc7e	1.3499906
148	0xbe5c9264	-0.21540219
149	0xbf55d8df	-0.83534044
150	0x3fa39815	1.2780787
151	0xbf24e247	-0.6440777
152	0xbeb4f657	-0.35344192
153	0x3f9013c2	1.125603
154	0xbfa6d405	-1.3033453
155	0xbf58280d	-0.8443611
156	0xbfa1ce23	-1.2641033
157	0x3fe73a03	1.8064579
158	0xc00e63d7	-2.2248437
159	0xbfa07e1f	-1.2538489
160	0xbf17b829	-0.5926538
161	0x3e752bcd	0.2394249
162	0xbc6af743	-0.014341178
163	0x3f4160fd	0.7553862
164	0x3f9593b0	1.1685696
165	0xbb0e6747	-0.0021729039
166	0x3f2dc137	0.6787295
167	0xbf7bf068	-0.98413706
168	0xbfea2877	-1.8293599
169	0xbf1b0737	-0.60557884
170	0xbed48975	-0.4151112
171	0xbefbc04b	-0.49170145
172	0x3fa3f968	1.2810488
173	0xbe27c44c	-0.16383475
174	0xbfa4f556	-1.288737
175	0xbe3770a5	-0.17914064
176	0xbe9f6335	-0.31130376
177	0x3e3222b8	0.17396057
178	0x3eaa6363	0.3327895
179	0xbfa3e038	-1.2802801
180	0x3df5563b	0.11979338
181	0xbd847252	-0.06467117
182	0xbe853c80	-0.2602272
183	0xbfe7487f	-1.8068999
184	0xbf1ccd17	-0.6125044
185	0xc005cd86	-2.0906692
186	0x3f99e7aa	1.2023823
187	0xbf8bf64f	-1.0934542
188	0xbecfdf05	-0.40599838
189	0xbfb30275	-1.3985125
190	0x3f06d569	0.5266939
191	0x3f947ac2	1.1599963
192	0x3f187649	0.5955549
193	0x3e0812ab	0.13288371
194	0xbf1e65e0	-0.618742
195	0x3ed013c5	0.40640083
196	0xbdaae3f3	-0.08344259
197	0xbf65dea9	-0.8979288
198	0xbf71484d	-0.9425095
199	0xbfa08e8c	-1.2543502
200	0xbe07ff71	-0.13281037
201	0xbf8d3ba9	-1.1033832
202	0x3e5be8ad	0.21475478
203	0xbee71a20	-0.4513712
204	0xbf6a4901	-0.91517645
205	0xbef78be6	-0.48348922
206	0xbf579ed6	-0.8422674
207	0x3e9e61a0	0.30933857
208	0xbe2d59c7	-0.16928779
209	0xbea9db6e	-0.33175224
210	0x3eb8deae	0.3610739
211	0xbf89b1ee	-1.0757425
212	0x40286386	2.6310744
213	0xbe942910	-0.28937578
214	0xbe4559db	-0.19272558
215	0xbf7e86fa	-0.9942471
216	0x3d55f4a4	0.05223526
217	0x3ea83a59	0.32857016
218	0x3e6241fa	0.2209548
219	0x3f3b3d49	0.7314039
220	0x3cdc87b1	0.026920171
221	0xbf855abc	-1.0418315
222	0x3f8e98cc	1.114038
223	0xbfc0bbc1	-1.5057298
224	0x3ff38e89	1.9027873
225	0x3f6b4a43	0.9191019
226	0xbf276a3c	-0.65396476
227	0xbf5a25ab	-0.85213727
228	0x3facd2a2	1.350178
229	0xbf9d00be	-1.2265851
230	0xbf6ae1c4	-0.9175074
231	0x3f5679d7	0.8377966
232	0xbf4a6ceb	-0.79072446
233	0xbed89cce	-0.42307132
234	0x3e3b2e27	0.18279324
235	0xbf33d538	-0.7024722
236	0x3f80ced9	1.0063125
237	0x3e835242	0.25648695
238	0xbf2ad590	-0.6673212
239	0x3fe42eed	1.7826821
240	0x3f7fa270	0.99857235
241	0xbf44a8a9	-0.76819855
242	0xbf0d8c04	-0.5529177
243	0x3f9fbb07	1.2478951
244	0xbe9ad5c9	-0.3024123
245	0x3e2b2105	0.16711815
246	0x3f330b06	0.69938695
247	0x3f533f75	0.825187
248	0xbf8b9f89	-1.0908061
249	0xbf92f96d	-1.1482369
250	0xbced7a4c	-0.02898898
251	0x3f178388	0.59185076
252	0x3fa18531	1.2618772
253	0xbfaa6869	-1.3313113
254	0x3e25f796	0.16207728
255	0x3e3715b6	0.17879376

master1 f4 [1, 1, 24]
0	0x401944c0	2.3948212
1	0x3df1e3fb	0.11811062
2	0x3ecb7053	0.39734134
3	0xbfad7699	-1.3551818
4	0x3fa59860	1.2937126
5	0xbfdca136	-1.7236698
6	0xbe6e3294	-0.23261482
7	0x3eeaf6f1	0.45891526
8	0xbf114dae	-0.56759155
9	0x3f46885a	0.77551806
10	0xbf834610	-1.0255756
11	0xbeb06d0e	-0.34458202
12	0xbfdc543f	-1.721321
13	0x3e4e6c85	0.20158584
14	0x3ea603fd	0.32424918
15	0x3fa3582d	1.2761284
16	0x3e83dd85	0.25754943
17	0xbf624d8a	-0.88399565
18	0xbf689b45	-0.9086192
19	0x3f9c53fb	1.2213129
20	0x3c17bbca	0.009261081
21	0x3f9b52fd	1.2134701
22	0xbfa0df9a	-1.2568238
23	0x3e4323bb	0.19056599

master2 f4 [1, 1, 24]
0	0xbe9ecc60	-0.310153
1	0xbfa368c7	-1.276635
2	0xbf0e58ee	-0.55604446
3	0xbf4e9bb8	-0.8070636
4	0x3cf47709	0.029841917
5	0xbec66cb7	-0.38754818
6	0x3f43f833	0.76550597
7	0x3ebf0a9b	0.3731278
8	0x3fbb43ce	1.4630067
9	0xbed39975	-0.41328016
10	0xbf0dd267	-0.55399173
11	0x3f5a11d9	0.85183483
12	0xbfbbad7d	-1.466232
13	0x3f026b5e	0.5094508
14	0xbf4d5a05	-0.80215484
15	0x3ea7e8a8	0.3279469
16	0x3ed1cb8a	0.409756
17	0x3d98b5c8	0.07456547
18	0xbf3eeb85	-0.74578124
19	0xbf2a2016	-0.6645521
20	0xbf0ea0d6	-0.55714166
21	0xbf3115ab	-0.6917369
22	0xbf60dea0	-0.878397
23	0xbf4f0415	-0.80865604

encoder.0.0.conv1.weight f4 [32, 1, 2, 3]
0	0xbea4bc3a	-0.32174855
1	0xbdc3f3b3	-0.09567966
2	0xbe82069f	-0.25395676
3	0x3e35ce51	0.17754485
4	0x3d06eaac	0.032938644
5	0xbdb611e2	-0.088901296
6	0x3e5e55f1	0.21712472
7	0xbe868249	-0.26271275
8	0x3e9d602a	0.3073743
9	0x3e3a51b7	0.18195234
10	0xbe0c6470	-0.13710189
11	0xbea0fa1f	-0.31440827
12	0x3eaacbd1	0.33358625
13	0xbed0daac	-0.40791833
14	0x3ea9e77e	0.33184427
15	0x3cf57aae	0.029965725
16	0xbbcd3174	-0.006261999
17	0xbe196f5a	-0.14983884
18	0x3ec4917a	0.3839224
19	0x3e3beb15	0.18351395
20	0xbe414f00	-0.18877792
21	0xbea7bebd	-0.3276271
22	0x3dda2459	0.10651464
23	0x3eac73ec	0.3368219
24	0xbd275137	-0.040848937
25	0x3eaf8169	0.3427842
26	0x3e8c2460	0.27371502
27	0x3ec3051d	0.3808984
28	0xbca3c6d3	-0.019992268
29	0x3da8922b	0.08231004
30	0xbdff4e5e	-0.12466119
31	0x3ea8f8de	0.3300237
32	0x3e1a009b	0.15039293
33	0x3de48ae3	0.11159303
34	0xbe9f234b	-0.31081614
35	0x3dda04c1	0.10645438
36	0xbe0c6c7c	-0.13713259
37	0xbe771578	-0.24129283
38	0x3d8b189b	0.067918025
39	0xbe4e98b8	-0.20175445
40	0xbdf74c3b	-0.12075087
41	0x3d9916bd	0.0747504
42	0xbe5c5096	-0.21515116
43	0x3e0f6e66	0.14006957
44	0x3e126809	0.14297499
45	0x3e671018	0.22564733
46	0xbdbad1b8	-0.09122032
47	0x3e122b27	0.14274274
48	0x3e274452	0.16334656
49	0x3e280463	0.16407923
50	0x3cdfb4e0	0.027307928
51	0xbeb008cf	-0.3438172
52	0x3db10322	0.08643176
53	0xbca6838b	-0.020326396
54	0xbe24c6ed	-0.16091509
55	0xbead0fd8	-0.3380115
56	0x3dd80dc6	0.10549502
57	0xbc99da66	-0.018780898
58	0x3e7227dc	0.23648018
59	0xbe1ac62d	-0.1511466
60	0x3dbfb30b	0.093603216
61	0xbe1e25e5	-0.15444143
62	0x3ebd92dc	0.37026107
63	0xbebe3e47	-0.3715689
64	0xbe2ef60d	-0.17086048
65	0xbe52a672	-0.20571306
66	0x3e87dd50	0.26536036
67	0xbd9b41b0	-0.07580888
68	0xbe8d7b14	-0.27632964
69	0xbeaa68d1	-0.33283094
70	0x3eaa9fe2	0.33325106
71	0x3d54d312	0.051959105
72	0x3e9a7c7e	0.30173105
73	0xbe8a8074	-0.27051127
74	0x3c785470	0.01515685
75	0xbe8c5b4a	-0.27413398
76	0x3e7298bf	0.2369108
77	0xbe2ae1b7	-0.16687666
78	0x3eaeeba4	0.34164155
79	0xbebc759c	-0.3680848
80	0x3d95ff32	0.07324065
81	0xbeba3ffb	-0.36376938
82	0xbe4e270d	-0.20132084
83	0x3e6cddbd	0.23131461
84	0xbece8853	-0.40338382
85	0x3d91a2fe	0.071111664
86	0xbe83b933	-0.25727233
87	0xbe753f37	-0.23949896
88	0x3c8e5e12	0.01737884
89	0x3df16474	0.11786738
90	0xbe421bb1	-0.18955876
91	0x3e63771b	0.22213404
92	0x3d887e2f	0.066646926
93	0x3e389408	0.1802522
94	0xbded6c6e	-0.11592947
95	0xbe928620	-0.28617954
96	0x3e87496c	0.26423204
97	0xbe25a6ee	-0.1617696
98	0xbe315d58	-0.17320764
99	0xbeaf43b4	-0.3423134
100	0xbbbd7869	-0.0057821763
101	0x3dc6f4dd	0.09714673
102	0xbebc4f06	-0.3677904
103	0xbeb0218a	-0.34400588
104	0xbe19f50b	-0.15034883
105	0xbe7c0ebc	-0.24614996
106	0xbd1d07fb	-0.03833769
107	0xbe9ff388	-0.31240487
108	0x3ebbb206	0.3665926
109	0xbea18af6	-0.3155133
110	0x3e47e353	0.19520311
111	0xbe573f7b	-0.2102031
112	0x3e051a07	0.1299821
113	0x3d85b9a3	0.06529548
114	0xbe2fb0f9	-0.17157353
115	0x3db4ede1	0.08834434
116	0x3d06310d	0.032761622
117	0x3dbcf86e	0.09227072
118	0x3e99cd5c	0.3003949
119	0xbeb21a70	-0.34785795
120	0xbe67f3d9	-0.22651614
121	0x3e4632aa	0.19355264
122	0x3e9529e2	0.29133517
123	0x3eb51c5a	0.35373193
124	0xbe850790	-0.25982332
125	0xbe300454	-0.17189151
126	0xbc951acb	-0.018201252
127	0xbd9a02b5	-0.075200476
128	0x3ea22a8f	0.31673095
129	0xbeb7097d	-0.35749426
130	0xbe9607cc	-0.29302824
131	0x3dd7c917	0.10536402
132	0x3d5af941	0.053460363
133	0x3e217512	0.15767315
134	0x3e834cb4	0.25644457
135	0xbd9d763c	-0.07688567
136	0xbe310fbf	-0.17291163
137	0xbe0d794b	-0.13815801
138	0x3de5e0b1	0.11224497
139	0xbe5b4c3a	-0.21415797
140	0xbecc5617	-0.3990943
141	0x3e872cef	0.2640147
142	0x3e3f789f	0.18698357
143	0xbd8b6b67	-0.06807595
144	0x3e00bcd0	0.12572026
145	0x3e1e3543	0.15450005
146	0x3d426f9a	0.047469713
147	0xbe0105c0	-0.1259985
148	0xbe9c566a	-0.3053468
149	0x3e821381	0.25405505
150	0x3e99a9d0	0.3001237
151	0xbe029142	-0.12750724
152	0x3e8c4b3a	0.27401143
153	0x3e6aa103	0.22912984
154	0xbd5e3291	-0.054247443
155	0xbea9c281	-0.33156207
156	0x3e83e4b1	0.25760415
157	0xbc5143f5	-0.01277255
158	0x3e70de73	0.23522358
159	0x3e056cc5	0.13029774
160	0x3ec23648	0.37932038
161	0x3e959c86	0.2922098
162	0x3eca0057	0.39453384
163	0xbeb394b4	-0.3507439
164	0x3ec18d34	0.37803042
165	0xbd4ee506	-0.050511383
166	0x3eaf355d	0.342204
167	0xbc488215	-0.012238045
168	0x3e451818	0.19247472
169	0xbd7b1e56	-0.061308227
170	0x3e91b2e7	0.28456804
171	0xbe996b60	-0.29964733
172	0x3eabea53	0.33577213
173	0x3e51ae35	0.20476611
174	0x3e21dd72	0.15807131
175	0x3e86f559	0.2635906
176	0xbd93233b	-0.07184454
177	0x3d7795bc	0.060445532
178	0xbe3f02c0	-0.18653393
179	0xbc90bbc7	-0.017667664
180	0x3e6422a3	0.22278838
181	0xbec22234	-0.3791672
182	0xbd98877f	-0.07447719
183	0x3e7fd1d0	0.24982381
184	0xbed14215	-0.4087073
185	0x3ec5dd2b	0.386453
186	0x3e1f13fd	0.15534969
187	0xbe1d198e	-0.1534178
188	0x3e03b006	0.12860116
189	0x3e958e4a	0.2921012
190	0x3e392b30	0.18082881
191	0xba6e918f	-0.00091006694

encoder.0.0.conv1.bias f4 [32]
0	0x3eb8b16e	0.36072868
1	0x3deee0a3	0.1166394
2	0x3e43411a	0.19067803
3	0x3eb96ef3	0.3621746
4	0x3e45d627	0.19319974
5	0x3e9a2b41	0.30111125
6	0xbe9d8c5d	-0.3077115
7	0x3e8ce8e9	0.27521446
8	0x3e763f0d	0.2404749
9	0x3e6b40b8	0.22973907
10	0xbe69fc4f	-0.22850154
11	0xbe941ffc	-0.28930652
12	0x3da91303	0.08255579
13	0xbea54b3b	-0.3228396
14	0xbe4fc120	-0.20288515
15	0xbe8d89b8	-0.27644134
16	0x3d28e734	0.041236117
17	0xbe44e29e	-0.19227073
18	0xbeafa6b4	-0.34306872
19	0xbe8a5679	-0.27019098
20	0x3ce8b525	0.028406689
21	0x3e3c456d	0.18385859
22	0xbe9481fc	-0.2900542
23	0x3e0de116	0.13855395
24	0xbe39a8ad	-0.18130751
25	0xbc1b278e	-0.00946988
26	0x3d974b0b	0.0738736
27	0x3d3dc5bb	0.04633115
28	0x3e30c268	0.1726166
29	0x3bc0fe10	0.0058896616
30	0xbecb699e	-0.39729017
31	0xbe3416f4	-0.17586881

encoder.0.0.bn2.weight f4 [32]
0	0x3f7eb203	0.99490374
1	0x3f8199bf	1.0125045
2	0x3f746078	0.954597
3	0x3f773b1d	0.96574575
4	0x3f7324e9	0.94978195
5	0x3f6da175	0.9282449
6	0x3f7dcf69	0.9914461
7	0x3f6dfb6b	0.9296176
8	0x3f72428b	0.94632787
9	0x3f7b7fc9	0.9824186
10	0x3f723967	0.9461884
11	0x3f85b775	1.0446612
12	0x3f78e24b	0.97220296
13	0x3f80b63d	1.0055615
14	0x3f7e8b42	0.9943124
15	0x3f77c022	0.96777546
16	0x3f82e416	1.0225856
17	0x3f7f2712	0.9966899
18	0x3f6e1c21	0.9301167
19	0x3f848f94	1.0356317
20	0x3f7247d5	0.94640857
21	0x3f7b8d93	0.982629
22	0x3f71bdf2	0.9443046
23	0x3f7eba67	0.9950318
24	0x3f6ee7cf	0.9332246
25	0x3f73327f	0.94998926
26	0x3f71231c	0.941942
27	0x3f6f38ac	0.9344585
28	0x3f734899	0.9503265
29	0x3f70d926	0.9408134
30	0x3f7c2dc5	0.9850734
31	0x3f7032a4	0.9382727

encoder.0.0.bn2.bias f4 [32]
0	0xbd93518d	-0.07193289
1	0xbccb077e	-0.024783846
2	0x3d1196f9	0.03554437
3	0xbb657e0a	-0.0035017752
4	0x3b4843a0	0.0030557886
5	0x3e19b523	0.15010504
6	0xbd3d0bdf	-0.0461539
7	0x3da4917d	0.08035562
8	0x3d4b29bf	0.04960036
9	0xbd36653e	-0.044530146
10	0xbbc74466	-0.006081152
11	0xbdaa98b9	-0.08329911
12	0xbd81449f	-0.063119166
13	0xbd918b02	-0.07106592
14	0xbd73d406	-0.059528373
15	0x3bb998cc	0.0056639668
16	0xbd614970	-0.055001676
17	0xbd26b0b5	-0.040695865
18	0x3d90e061	0.07074047
19	0xbc8ca005	-0.017166147
20	0x3c278c50	0.010226324
21	0xbd036820	-0.032081723
22	0xbd5316c7	-0.051535394
23	0xbb40bfbd	-0.002941116
24	0x3d0e56d0	0.03475076
25	0x3e2a4321	0.1662717
26	0x3d724782	0.059150226
27	0x3d8f7d0f	0.07006275
28	0xbc06a20e	-0.008217348
29	0x3dd41338	0.10355228
30	0x3bcfd390	0.006342359
31	0x3c94ddcc	0.018172167

encoder.0.0.bn2.running_mean f4 [32]
0	0x3e9cf9f9	0.30659464
1	0x3ded837c	0.11597344
2	0x3e5080f1	0.20361687
3	0x3ed28de2	0.41123873
4	0x3e968990	0.29401827
5	0x3ea75ede	0.32689565
6	0xbeb9d957	-0.3629863
7	0x3e9e5d23	0.30930433
8	0x3e7e276f	0.2481973
9	0x3e4a4bdc	0.197555
10	0xbe8b3aa4	-0.27193177
11	0xbe95e6e2	-0.29277712
12	0x3d88b25e	0.06674646
13	0xbeb3e971	-0.3513904
14	0xbe8b02e0	-0.2715063
15	0xbe93cc6b	-0.28866896
16	0x3c19e847	0.009393758
17	0xbeac4b70	-0.33651304
18	0xbea3d626	-0.3199932
19	0xbe8a90af	-0.2706351
20	0x3d3ce9a6	0.046121262
21	0x3e1bb92d	0.15207358
22	0xbe906508	-0.2820208
23	0x3e01d1ee	0.12677738
24	0xbe2a364a	-0.16622272
25	0x3c9cd237	0.019143207
26	0x3e4d67ab	0.20059077
27	0x3ded0ccb	0.11574706
28	0x3e73199d	0.2374024
29	0x3cd772ab	0.026299795
30	0xbecb7fda	-0.3974598
31	0xbdee297e	-0.11629008

encoder.0.0.bn2.running_var f4 [32]
0	0x3e720f87	0.23638736
1	0x3d0e1dde	0.034696452
2	0x3d041165	0.03224315
3	0x3e285194	0.1643737
4	0x3f22a06d	0.6352604
5	0x3d82271b	0.06355115
6	0x3e49f7d6	0.19723448
7	0x3da33c27	0.079704575
8	0x3d252f10	0.040328085
9	0x3db017cc	0.08598289
10	0x3e5ca01e	0.21545455
11	0x3c41b0a3	0.011821899
12	0x3cd1568c	0.025553964
13	0x3da025db	0.0781972
14	0x3ea2f2c2	0.31825835
15	0x3cbc5c5b	0.022993257
16	0x3d90eb31	0.07076109
17	0x3fa65077	1.2993306
18	0x3d342c6e	0.043987684
19	0x3c20aa82	0.009806277
20	0x3d18d43c	0.037311777
21	0x3e038060	0.1284194
22	0x3d84c9d1	0.06483806
23	0x3db59c16	0.08867662
24	0x3d250bd0	0.04029447
25	0x3dbd13b3	0.09232273
26	0x3f80fe9d	1.0077702
27	0x3e9d0dbc	0.3067454
28	0x3e8d1ef1	0.2756267
29	0x3d4974a7	0.049183514
30	0x3d2089dc	0.039193973
31	0x3e6f0182	0.23340419

encoder.0.0.conv2.weight f4 [32, 32, 2, 3]
0	0x3bfad267	0.0076544764
1	0xbc85d881	-0.016338589
2	0x3da8c6db	0.08241054
3	0x3d40570e	0.04695802
4	0xbbb47f5a	-0.0055083456
5	0xbcaafe66	-0.02087326
6	0xbc08e6ff	-0.008355855
7	0x3d11b8af	0.03557652
8	0xbd968e1f	-0.07351326
9	0xbd83188a	-0.06401165
10	0x3d4a8433	0.04944248
11	0x3d628755	0.055304844
12	0xbd440450	-0.047855675
13	0x3d887195	0.06662289
14	0xbd6989a8	-0.057016045
15	0xbd7d5412	-0.061847754
16	0xbd2c8dcc	-0.042127416
17	0x3d63339f	0.05546915
18	0xbd8057be	-0.062667355
19	0x3d027746	0.03185203
20	0x3b987c3c	0.0046534818
21	0x3c4e19b0	0.012579367
22	0xbd2fd373	-0.042926263
23	0x3d07d383	0.033160698
24	0x3d118128	0.035523564
25	0xbc8a0b83	-0.016851192
26	0x3c80f039	0.015739547
27	0x3d668f91	0.05628926
28	0xbd454495	-0.048161108
29	0x3caadb60	0.02085656
30	0x3d7b0ec5	0.061293382
31	0x3c8b8332	0.017030332
32	0xbcca1332	-0.024667356
33	0x3c115f74	0.008872855
34	0x3cabfc0b	0.020994207
35	0x3c3f0b1b	0.011660363
36	0x3a512602	0.0007978381
37	0x3bb2b334	0.0054534916
38	0xbd2b84f1	-0.04187483
39	0xbce2d700	-0.02769041
40	0xb9f8adfc	-0.00047431875
41	0x3d6bd9d2	0.057580777
42	0xbd1567eb	-0.036476057
43	0x3cd21463	0.025644487
44	0xbd4d320f	-0.050096568
45	0x3d21567b	0.039389115
46	0xbb854e15	-0.004068146
47	0xbd66ff27	-0.056395676
48	0x3cb14b33	0.021642303
49	0x3d6c4996	0.057687365
50	0x3cff1c1d	0.031141335
51	0xbcaa988f	-0.020824699
52	0xbd4a5726	-0.049399517
53	0x3d24e2b2	0.040255256
54	0x3d0e4e29	0.034742508
55	0x3cd272b5	0.025689462
56	0x3dafb6b6	0.08579771
57	0xbd143706	-0.036185287
58	0x3d1d8106	0.038453124
59	0x3d604c4d	0.054760266
60	0xbbcd25e6	-0.0062606214
61	0x3d88f838	0.06687969
62	0x3cde94f9	0.027170645
63	0xbb41722e	-0.002951752
64	0x3d597dab	0.053098362
65	0x3cec7394	0.028863706
66	0x3d254f7b	0.040359
67	0xbd99071d	-0.0747206
68	0x3d787fe4	0.06066884
69	0xbd6d5eef	-0.057951864
70	0xbce9792e	-0.028500166
71	0x3c619e40	0.01377064
72	0x3cba651b	0.022753289
73	0xbcd96f66	-0.026542377
74	0xbd57b211	-0.05266005
75	0xbd51ed36	-0.051251613
76	0xbce215db	-0.027598312
77	0x3ccad9c4	0.024762042
78	0xbc9e0bc4	-0.01929272
79	0x3d4b9a5c	0.049707755
80	0xbd84f52a	-0.06492074
81	0x3cf66fa3	0.03008253
82	0xbd093bab	-0.03350417
83	0xbac34add	-0.001489963
84	0x398aca8b	0.00026472317
85	0x3cd59571	0.026072236
86	0xbc92e7b3	-0.017932748
87	0xbd0d6726	-0.0345222
88	0xbccc5afa	-0.024945725
89	0x3d8faab3	0.0701498
90	0x3c5cf55f	0.013486235
91	0x3d2587c4	0.04041268
92	0x3c3bf95c	0.011473026
93	0x3d8db97f	0.06920146
94	0x3d1323ad	0.035922695
95	0xbda0c5f0	-0.078502536
96	0xbcfb6dbe	-0.030691978
97	0x3d7ac342	0.06122137
98	0xbcfba122	-0.030716483
99	0xbb3075b0	-0.0026925616
100	0x3cb9b8c9	0.02267112
101	0x3d3678f5	0.044548947
102	0xbceb81eb	-0.028748473
103	0x3c67eaad	0.014155072
104	0x3d001ee2	0.031279452
105	0xbd857661	-0.065167196
106	0x3cd4520c	0.02591803
107	0x3cd195cc	0.025584124
108	0x3ae07e58	0.0017127497
109	0xbd872070	-0.06597984
110	0xbd9ec5ed	-0.07752595
111	0x3cd939af	0.026516763
112	0x3d1a2691	0.037634436
113	0xbd50a700	-0.050940514
114	0x3cc886d3	0.024478352
115	0xbcb0383a	-0.021511186
116	0xb9c528f9	-0.00037605295
117	0x3d3c32e8	0.045946985
118	0xbdb3ff2d	-0.08788905
119	0xbd5704d2	-0.05249483
120	0x3ced1c35	0.028944114
121	0xbb9f2404	-0.0048565883
122	0xbd41f9c3	-0.047357332
123	0xbbc93d59	-0.0061413464
124	0x3d13643d	0.035984267
125	0xbda2c6a7	-0.07948046
126	0xbd28b22d	-0.041185547
127	0x3d6868a6	0.056740426
128	0xbd75050d	-0.05981927
129	0x3b1e2431	0.0024130458
130	0xbd8a69b0	-0.067584395
131	0x3d4e9f75	0.05044504
132	0xbd89f1e4	-0.0673559
133	0xbc9bd298	-0.019021317
134	0xbb8b4fee	-0.0042514717
135	0x3c6b940b	0.014378558
136	0x3d731625	0.05934729
137	0xbda46bb8	-0.08028358
138	0x3da22491	0.07917131
139	0x3cae889c	0.021305375
140	0x3d05fdfd	0.032712925
141	0xbcc82cca	-0.02443542
142	0xbcb31161	-0.021858873
143	0x3d138743	0.036017668
144	0xbd8dc08d	-0.06921492
145	0xbc238908	-0.009981401
146	0xbbfb68da	-0.0076724114
147	0x3ce7b34f	0.028283743
148	0x3b640a76	0.0034796274
149	0xbd071e00	-0.032987595
150	0x3c3afa26	0.011412179
151	0xbc7ba52c	-0.015359204
152	0x3d0dbbb8	0.03460285
153	0x3c0f78b0	0.0087568015
154	0x3d154022	0.036438115
155	0x3d794139	0.060853217
156	0xbd7a20d0	-0.06106645
157	0xbcca8df1	-0.024725886
158	0xbdb12bbd	-0.086509205
159	0xbd10b186	-0.03532555
160	0xba4ff8e8	-0.0007933513
161	0xbd22192a	-0.03957478
162	0xbbb7df26	-0.005611318
163	0xbd6c18ce	-0.057640843
164	0xbd66f740	-0.05638814
165	0x3d67e798	0.05661735
166	0x3d2e6afc	0.042582497
167	0xbc3d850f	-0.011567368
168	0x3bc73e43	0.00608042
169	0xbd3cbdd1	-0.04607946
170	0xbd0a077b	-0.03369854
171	0x3c844bff	0.016149519
172	0x3d16c1a1	0.036805753
173	0xbd84c2f1	-0.064824946
174	0xbd5d8182	-0.054078586
175	0xbcac7279	-0.021050679
176	0x3d651f5c	0.05593811
177	0x3d553c08	0.052059203
178	0x3d80e040	0.06292772
179	0xbc80c11b	-0.01571708
180	0xbbaea046	-0.0053291647
181	0x3d276cfa	0.040875413
182	0xbd4c6198	-0.04989776
183	0x3d299c0c	0.041408584
184	0x3b1ead8e	0.0024212333
185	0xbce3b3f1	-0.027795764
186	0x3d4cea61	0.05002821
187	0x3c1eb4ec	0.00968669
188	0x3c4002cd	0.011719418
189	0x3ba7d9e8	0.005122412
190	0x3c9bf900	0.01903963
191	0x3c292e85	0.0103260325
192	0x3d46911e	0.04847824
193	0x3b5e801b	0.0033950869
194	0xbc481ef5	-0.012214412
195	0xbd81a6d1	-0.06330646
196	0x3d0d2905	0.034462947
197	0x3ca33a17	0.01992516
198	0xbca068b3	-0.019581174
199	0x3d080525	0.03320803
200	0xbd2bbeee	-0.04193013
201	0xbd26bd68	-0.040707976
202	0x3d0105b9	0.0314996
203	0x3d0d8bb2	0.034557052
204	0x3c953ab0	0.018216461
205	0x3bb781b4	0.0056001786
206	0x3b156016	0.0022792867
207	0x3d9829d6	0.074298546
208	0x3d3f1406	0.046649955
209	0xbd24594d	-0.040124226
210	0x3cad2703	0.021136766
211	0xbd206f09	-0.03916839
212	0x3d949f14	0.07256904
213	0x3c96ad67	0.018393232
214	0xbb2c3b79	-0.0026280566
215	0xbc3e61c5	-0.01161999
216	0x3c99926f	0.018746583
217	0xbd3406b8	-0.04395172
218	0xbc1ed656	-0.009694656
219	0xbc792f7c	-0.015209075
220	0xbd0a3769	-0.03374425
221	0x3d157c81	0.03649569
222	0x3d471c46	0.048610948
223	0xbbfaf242	-0.007658274
224	0xbc175ef3	-0.009238946
225	0x3d7db7d4	0.06194289
226	0xbd611203	-0.054948818
227	0xbc94c905	-0.01816226
228	0x3c0c925e	0.0085798185
229	0xbd3210dc	-0.04347311
230	0x3d8d5edb	0.06902858
231	0x3ce51070	0.02796194
232	0x3ccef134	0.025261499
233	0x3d91a4ee	0.07111536
234	0xbd653e8e	-0.05596786
235	0x3d97528c	0.073887914
236	0x3d8076ec	0.062726825
237	0x3ca4c8cc	0.020115279
238	0xbca7d07e	-0.020485159
239	0x3d79f591	0.061025206
240	0x3d4c9a85	0.04995205
241	0xbc9940ac	-0.018707596
242	0x3d98ca7e	0.07460497
243	0xbbe4e3a4	-0.0069851447
244	0x3d4e80a6	0.050415657
245	0xbc8f31ff	-0.017479895
246	0x3d14728d	0.036242057
247	0xbce966d1	-0.02849141
248	0x3d254153	0.0403455
249	0xbc544e7d	-0.012958166
250	0xbb3bcf41	-0.0028657469
251	0x3c2b14ea	0.010441998
252	0x3d378b23	0.044810425
253	0xbc6b0ee1	-0.014346809
254	0x3cf46549	0.029833453
255	0xbd7fbf38	-0.06243822

encoder.0.0.conv2.bias f4 [32]
0	0x3ce2cf36	0.027686696
1	0xbd12d77f	-0.035850044
2	0x3d5d1c33	0.05398197
3	0x3d07ece9	0.03318492
4	0xbbb14255	-0.0054095187
5	0xbd355aa6	-0.044275902
6	0xbd857ba4	-0.06517723
7	0xbd188548	-0.037236482
8	0xbd997250	-0.074925065
9	0xbbed64b3	-0.0072446703
10	0xbd16b2e0	-0.036791682
11	0x3c0d6e25	0.0086322175
12	0x3cfc5608	0.030802742
13	0xbdc3db7a	-0.09563346
14	0x3cb0640f	0.021532087
15	0xbba9bb90	-0.00517983
16	0xbd3b4ed3	-0.04572947
17	0x3d1bff1e	0.038085096
18	0x3d1d8eb7	0.03846618
19	0x3dbc3ad7	0.0919091
20	0x3daeee00	0.08541489
21	0xbd32dc74	-0.04366727
22	0x3d2b06fd	0.04175471
23	0xbc82afd3	-0.01595298
24	0xbb8442ec	-0.004036298
25	0x3d032da7	0.03202596
26	0x3d23d34b	0.039996427
27	0x3cd53ef1	0.02603099
28	0x3c156f69	0.0091208005
29	0x3cdbd196	0.026833337
30	0x3cf203c5	0.029542813
31	0xbd7d7e4e	-0.06188803

encoder.0.0.conv_downsample.weight f4 [32, 1, 1, 3]
0	0x3ec125ef	0.37724254
1	0xbdd02150	-0.10162604
2	0x3f0aeba3	0.54265803
3	0xbeb3e8f7	-0.35138676
4	0xbee97c93	-0.45602855
5	0x3e60a92b	0.21939532
6	0xbeedc6cb	-0.4644073
7	0x3eff57eb	0.49871764
8	0xbd2d55c5	-0.042318124
9	0x3eb7303d	0.3577899
10	0x3e5d7f91	0.21630694
11	0x3eda4d97	0.4263732
12	0x3f0a3fc4	0.5400355
13	0x3eb79b55	0.35860696
14	0xbdd3d4ba	-0.10343309
15	0xbe614710	-0.21999764
16	0x3da92b76	0.08260243
17	0xbdca1fab	-0.098693214
18	0x3e9d8080	0.307621
19	0x3e2aecd0	0.166919
20	0xbc2322a5	-0.00995699
21	0xbec2c705	-0.38042465
22	0x3e681c86	0.22667131
23	0x3d632980	0.0554595
24	0xbc72368b	-0.014783512
25	0xbebcf8f2	-0.3690868
26	0xbe94ee6e	-0.29088157
27	0x3eae6483	0.3406106
28	0x3e87aa79	0.26497248
29	0xbe579176	-0.21051583
30	0xbe5a0013	-0.21289091
31	0xbe89b611	-0.26896718
32	0xbea289ad	-0.31745663
33	0xbf000409	-0.5000616
34	0x3eb27e70	0.3486209
35	0x3ecc8e32	0.39952236
36	0xbee4f5d2	-0.44718796
37	0x3df51d3a	0.11968465
38	0xbe865db8	-0.26243377
39	0x3dae7a60	0.08519435
40	0x3e699847	0.22811995
41	0xbe3b8249	-0.18311419
42	0xbeed8743	-0.4639226
43	0x3e45a846	0.19302472
44	0xbea75ce1	-0.32688048
45	0x3ec587b2	0.3858009
46	0xbed6e89c	-0.41974342
47	0x3db09937	0.086229734
48	0x3cc0560f	0.023478536
49	0x3ee69e32	0.45042568
50	0xbea7e061	-0.32788375
51	0xbf05e84c	-0.5230758
52	0x3ef3d438	0.47622848
53	0x3e0d730c	0.13813418
54	0xbee6c3de	-0.4507131
55	0x3e3e2804	0.18569952
56	0xbcf3e2a3	-0.029771155
57	0xbe7c81b0	-0.24658847
58	0x3ec76839	0.38946703
59	0x3ece64aa	0.40311176
60	0xbdbe8040	-0.093018055
61	0xbec2ec8b	-0.38071093
62	0xbe0e384e	-0.13888666
63	0x3d7c4ad8	0.061594814
64	0x3e78ed4c	0.24309272
65	0x3e8ebe83	0.27879724
66	0x3e94c007	0.29052755
67	0xbddeff66	-0.10888557
68	0x3e8cf849	0.27533177
69	0xbe076c70	-0.1322496
70	0x3d11261b	0.03543673
71	0x3edc387b	0.4301184
72	0x3e87e8bd	0.26544753
73	0xbdcd1a02	-0.10014726
74	0x3dd95e0f	0.106136434
75	0x3f02c8b4	0.510875
76	0xbf0bed88	-0.5465932
77	0xbe014dc6	-0.12627324
78	0xbef8b561	-0.4857588
79	0x3eefbc4d	0.4682335
80	0x3e81934c	0.2530769
81	0x3f0b3dfc	0.54391456
82	0x3e36094b	0.17776982
83	0x3ec99b68	0.39376378
84	0xbe68681a	-0.22695962
85	0x3ecf4328	0.40480924
86	0x3e49db56	0.19712576
87	0xbee3ed32	-0.44516903
88	0xbd948455	-0.07251803
89	0xbeebd0c6	-0.4605772
90	0x3d2f7c65	0.04284324
91	0x3e9eaec1	0.30992702
92	0xbef7cf6e	-0.48400444
93	0x3da5fef3	0.08105268
94	0x3cb53b0e	0.022122886
95	0xbed701ed	-0.41993657

encoder.0.0.conv_downsample.bias f4 [32]
0	0xbe368f85	-0.17828186
1	0xbd33d4ee	-0.043904237
2	0xbf09668f	-0.53672117
3	0x3da78d61	0.08181263
4	0xbf1295c5	-0.5725978
5	0xbd9f79c6	-0.07786898
6	0xbefd0ee5	-0.49425426
7	0x3e2bb2cb	0.16767423
8	0xbeba9699	-0.36443022
9	0xbe66236d	-0.22474451
10	0x3ec38d17	0.3819358
11	0xbf0387d8	-0.51379156
12	0x3f16af63	0.5886137
13	0xbc8e9cc5	-0.017408738
14	0xbf04caad	-0.5187176
15	0xbe467b8a	-0.19383064
16	0xbd9add06	-0.07561688
17	0xbce6570b	-0.028117677
18	0x3ef43ee4	0.47704232
19	0x3dfbea3c	0.12300536
20	0x3e809e70	0.25120878
21	0xbcc6b47a	-0.02425598
22	0x3f1f7729	0.622912
23	0xbf11721a	-0.5681473
24	0x3e6749c1	0.22586729
25	0x3e9da39e	0.30788893
26	0x3ec9d89c	0.39423072
27	0xbe9ff152	-0.312388
28	0xbcfb0c26	-0.030645441
29	0xbe9b3624	-0.30314744
30	0x3ed27c09	0.41110256
31	0xbeddbbdd	-0.4330739

encoder.1.0.bn1.weight f4 [32]
0	0x3f800000	1.0
1	0x3f800000	1.0
2	0x3f800000	1.0
3	0x3f800000	1.0
4	0x3f800000	1.0
5	0x3f800000	1.0
6	0x3f800000	1.0
7	0x3f800000	1.0
8	0x3f800000	1.0
9	0x3f800000	1.0
10	0x3f800000	1.0
11	0x3f800000	1.0
12	0x3f800000	1.0
13	0x3f800000	1.0
14	0x3f800000	1.0
15	0x3f800000	1.0
16	0x3f800000	1.0
17	0x3f800000	1.0
18	0x3f800000	1.0
19	0x3f800000	1.0
20	0x3f800000	1.0
21	0x3f800000	1.0
22	0x3f800000	1.0
23	0x3f800000	1.0
24	0x3f800000	1.0
25	0x3f800000	1.0
26	0x3f800000	1.0
27	0x3f800000	1.0
28	0x3f800000	1.0
29	0x3f800000	1.0
30	0x3f800000	1.0
31	0x3f800000	1.0

encoder.1.0.bn1.bias f4 [32]
0	0x00000000	0.0
1	0x00000000	0.0
2	0x00000000	0.0
3	0x00000000	0.0
4	0x00000000	0.0
5	0x00000000	0.0
6	0x00000000	0.0
7	0x00000000	0.0
8	0x00000000	0.0
9	0x00000000	0.0
10	0x00000000	0.0
11	0x00000000	0.0
12	0x00000000	0.0
13	0x00000000	0.0
14	0x00000000	0.0
15	0x00000000	0.0
16	0x00000000	0.0
17	0x00000000	0.0
18	0x00000000	0.0
19	0x00000000	0.0
20	0x00000000	0.0
21	0x00000000	0.0
22	0x00000000	0.0
23	0x00000000	0.0
24	0x00000000	0.0
25	0x00000000	0.0
26	0x00000000	0.0
27	0x00000000	0.0
28	0x00000000	0.0
29	0x00000000	0.0
30	0x00000000	0.0
31	0x00000000	0.0

encoder.1.0.bn1.running_mean f4 [32]
0	0x3e1d3790	0.15353227
1	0xbc55ebcd	-0.013056708
2	0xbeaccadd	-0.33748522
3	0x3e8eb52b	0.27872595
4	0xbed564ab	-0.41678366
5	0xbb38b40a	-0.0028183484
6	0xbec3a3e1	-0.38210967
7	0x3e0c74ed	0.13716479
8	0xbec71770	-0.3888507
9	0xbdb1486f	-0.08656394
10	0x3ec59a63	0.3859435
11	0xbeaa3172	-0.3324085
12	0x3f40e438	0.75348234
13	0xbd6dfd65	-0.058102984
14	0xbec43a17	-0.3832557
15	0xbdd33e61	-0.10314632
16	0xbd38a016	-0.045074545
17	0x3e0d92cf	0.13825534
18	0x3f11c8ff	0.5694732
19	0x3ec9d4a8	0.39420056
20	0x3ecf87d7	0.40533325
21	0x3e0d4d64	0.13799053
22	0x3f6004b3	0.8750717
23	0xbea0e17b	-0.31422028
24	0x3ebd3cdc	0.36960495
25	0x3ee2030c	0.4414295
26	0x3f2064fd	0.62654096
27	0xbdc1b062	-0.094574705
28	0x3e127d37	0.14305578
29	0xbe93528f	-0.28773925
30	0x3f0bd271	0.54617983
31	0xbec1ef99	-0.3787811

encoder.1.0.bn1.running_var f4 [32]
0	0x3f050c4b	0.5197188
1	0x3eda711d	0.42664424
2	0x3e100029	0.14062561
3	0x3dcda36c	0.10040936
4	0x3dcf53ae	0.101233825
5	0x3da032fe	0.07822226
6	0x3dd8c8ad	0.10585151
7	0x3e434627	0.1906973
8	0x3d7e3844	0.062065378
9	0x3e9f5b24	0.31124222
10	0x3d7272a0	0.059191346
11	0x3e50f626	0.20406398
12	0x3dff36cb	0.12461623
13	0x3d9a3974	0.075304896
14	0x3fbdb68e	1.4821336
15	0x3d9a6554	0.07538858
16	0x3f21252c	0.62947345
17	0x3f41b800	0.75671387
18	0x3e812218	0.25221324
19	0x3e1a24c1	0.15053083
20	0x3dc1e636	0.094677374
21	0x3e4da466	0.20082244
22	0x3ea512fe	0.32241052
23	0x3e7bbe9f	0.24584435
24	0x3e4ad4d7	0.19807754
25	0x3d89659b	0.06708833
26	0x3ea880e9	0.3291085
27	0x3e5fef82	0.21868709
28	0x3d9e95ad	0.07743392
29	0x3f3cc7d8	0.7374244
30	0x3d9afd47	0.0756784
31	0x3e7dd7dc	0.24789375

encoder.1.0.conv1.weight f4 [32, 32, 2, 3]
0	0xbcd97cb3	-0.026548719
1	0x3c4d67b4	0.012536932
2	0x3cbca629	0.02302845
3	0xbcba6fb8	-0.02275835
4	0x3b149efc	0.002267777
5	0xbc95e383	-0.018296963
6	0x3d0a5cb9	0.033779833
7	0x3d41261c	0.047155485
8	0xbd16da66	-0.036829375
9	0xbd844d5e	-0.06460069
10	0x3d66f50f	0.05638605
11	0x3b5840ad	0.0032997534
12	0x3d0992dd	0.033587325
13	0x3cd219d1	0.025647076
14	0x3d234f24	0.039870396
15	0x3ca4f4d5	0.020136276
16	0x3d063e57	0.032774296
17	0xbd02ff8e	-0.031981997
18	0xbcfcc18a	-0.030854005
19	0x3bb99aa3	0.005664186
20	0x3bb34c31	0.005471729
21	0x3ce8a38e	0.028398301
22	0x3d41bfa9	0.047301922
23	0xbc4c3b30	-0.012465283
24	0xbd1421cd	-0.036165047
25	0x3d44d9aa	0.048059143
26	0x3d4ef96b	0.050530832
27	0x3d8dd8a1	0.06926084
28	0xbd27cc41	-0.040966276
29	0xbcf8193c	-0.03028547
30	0xbd5108ab	-0.051033657
31	0xbcef186e	-0.029186454
32	0x3c5c04d2	0.013428884
33	0x3bbb3712	0.005713352
34	0x3d2e3fca	0.042541303
35	0xbc9050f8	-0.017616734
36	0x3c5d99da	0.013525451
37	0x3d52b330	0.051440418
38	0x3c89f362	0.016839687
39	0x3cc69400	0.024240494
40	0xbd56654b	-0.052342694
41	0x3d02a6ff	0.03189754
42	0x3d62f8b6	0.05541297
43	0xbd11cce8	-0.035595804
44	0xbc627446	-0.013821667
45	0x3d9ff6c5	0.078107394
46	0x3cea99b9	0.028637754
47	0xbc715b9b	-0.014731313
48	0x3be5a665	0.007008361
49	0x3c694e46	0.014239853
50	0xbd00eb77	-0.031474557
51	0xbd2b86ad	-0.041876484
52	0x3da91600	0.08256149
53	0x3dc6930c	0.09696016
54	0x3d8681ff	0.065677635
55	0xbd37c878	-0.044868916
56	0xbd4ef8ab	-0.050530117
57	0x3cb11559	0.021616625
58	0x3d91ee8d	0.07125578
59	0xbbd01cc4	-0.0063510854
60	0xbd24cac2	-0.040232427
61	0x3cbccd40	0.02304709
62	0xbd5d65b8	-0.054052085
63	0x3cedb1aa	0.02901538
64	0xbce60305	-0.028077612
65	0x3c0c583c	0.008565959
66	0xbc1247c2	-0.008928241
67	0xbd430657	-0.047613468
68	0x3b10b1c9	0.0022078624
69	0xbcafd51c	-0.021463923
70	0xbc8979f7	-0.01678179
71	0x3d356e1c	0.04429446
72	0x3cb15539	0.021647083
73	0xbc4f8e05	-0.012668137
74	0x3d288bbd	0.04114889
75	0xbd1d6436	-0.038425647
76	0x3d9465d8	0.07245988
77	0xb86436db	-5.4410524e-05
78	0xbcf865b6	-0.030321937
79	0x3d025734	0.031821445
80	0xbc5451cc	-0.012958955
81	0xbd75a024	-0.059967175
82	0x3c0c606a	0.008567909
83	0x3d77efa3	0.06053127
84	0xbc762ca6	-0.015025293
85	0xbcf083dd	-0.029359752
86	0x3d7e8092	0.062134333
87	0x3d30bc5d	0.043148387
88	0xbbb2c4b7	-0.005455579
89	0x3d93fe60	0.072262526
90	0x3cbb91ea	0.022896726
91	0xbd0554ea	-0.032551683
92	0xbdb5817a	-0.08862586
93	0x3c45718a	0.012050996
94	0xbd00e37a	-0.03146694
95	0xbd85e782	-0.06538297
96	0x3d0ce29c	0.0343958
97	0xbd4da090	-0.050201952
98	0x3d460997	0.04834899
99	0x3d508f88	0.050918132
100	0x3c7cbbfe	0.01542568
101	0xbd8bf380	-0.06833553
102	0x3d42fe51	0.047605816
103	0xbcd36e3c	-0.0258094
104	0xbd70d61c	-0.05879794
105	0x3db3daf8	0.08781999
106	0x3d2abad8	0.041682094
107	0x3d86dec6	0.065854594
108	0xbb59b6e6	-0.0033220588
109	0x3cfbc14d	0.030731821
110	0x3d3b75b2	0.04576654
111	0x3dbf0027	0.09326201
112	0x3d479baa	0.048732437
113	0x3d63cde3	0.05561627
114	0xbc2d4013	-0.0105743585
115	0x3c315101	0.0108225355
116	0xbc4675bd	-0.012113032
117	0x3cee879d	0.0291174
118	0x3c3f4ce4	0.011676047
119	0xbc607685	-0.013700132
120	0xbd7c89ec	-0.06165497
121	0x3cd9e36d	0.026597703
122	0xbc501ef0	-0.012702689
123	0xbcbb324e	-0.022851136
124	0xbcde2387	-0.02711655
125	0x3d4bc139	0.04974482
126	0xbd6a6cd5	-0.057232697
127	0x3d77babf	0.06048083
128	0xbac10948	-0.0014727497
129	0xbd0171e6	-0.031602763
130	0xbca58a9f	-0.020207701
131	0xbcc012c3	-0.023446446
132	0xb99fe001	-0.0003049374
133	0x3d4db47c	0.05022095
134	0xbad43465	-0.0016189931
135	0x3c553f39	0.013015562
136	0xbcf51e1b	-0.029921582
137	0xbc933c9e	-0.01797324
138	0xbd468591	-0.048467223
139	0xbd2c5cb5	-0.0420806
140	0xbbb55cf3	-0.005534762
141	0xbcd69d5d	-0.026198084
142	0x3daa5cf3	0.0831851
143	0xbc0a6a29	-0.008448162
144	0xbcf8df7d	-0.030380005
145	0xbd23bd80	-0.039975643
146	0x3d8efa59	0.06981344
147	0xbaeb79c6	-0.0017965368
148	0x3d69fcdc	0.05712591
149	0x3cb4c777	0.022067768
150	0x3c024f95	0.007953544
151	0xbc629e7e	-0.013831733
152	0x3d2a7536	0.041615687
153	0xbd8f6abd	-0.070027806
154	0xbbcc9c88	-0.006244246
155	0x3d6fd4d4	0.058552578
156	0x3c8551a1	0.016274275
157	0x3d59211e	0.0530101
158	0x3d64611f	0.055756684
159	0x3d4fbfae	0.05071991
160	0x3c196e2f	0.009364649
161	0x3cb66d46	0.022268903
162	0x3d44cd69	0.048047457
163	0x3d31494a	0.043282785
164	0x3c73f1fb	0.014889236
165	0xbcd176fb	-0.02556943
166	0x3d4bf001	0.049789432
167	0xbc4337ad	-0.01191513
168	0xbca13799	-0.019679831
169	0x3d44e64d	0.048071194
170	0x3bd85b58	0.006602686
171	0x3d971de0	0.07378745
172	0x3d775a25	0.060388703
173	0x3c13ec88	0.009028561
174	0xbd2bf200	-0.041978836
175	0x3d27c8f3	0.040963124
176	0x3d5f3990	0.054498255
177	0xbd7ad3ba	-0.061237074
178	0x3d8812b9	0.06644196
179	0x3d0718c8	0.032982618
180	0xbd332d40	-0.043744326
181	0xbcb985e8	-0.02264686
182	0xbd48ae4c	-0.048994347
183	0x3cd53059	0.02602403
184	0x3d83090c	0.0639821
185	0x3d4c2b21	0.04984582
186	0xbd992e15	-0.074794926
187	0x3d852ccd	0.06502686
188	0x3d58af08	0.052901298
189	0xbdaf168e	-0.08549224
190	0x3d2eb4ee	0.042653017
191	0xbc95d50d	-0.018290067
192	0x3da56cb5	0.08077375
193	0x3d039614	0.032125548
194	0xbd665230	-0.056230724
195	0xbd646ef7	-0.055769887
196	0x3d77fdf4	0.060544923
197	0x3cd0c3e8	0.02548404
198	0xbcc47ec7	-0.023986233
199	0xbc043a93	-0.008070606
200	0x3d05c1d6	0.03265556
201	0xbb5ac39e	-0.0033380757
202	0xbc32a1e2	-0.010902854
203	0xbd45ebbd	-0.04832052
204	0x3c1ef4c4	0.009701911
205	0xbc68cbd9	-0.014208757
206	0x3cfc6a7b	0.030812493
207	0xbd5f04f1	-0.054448072
208	0x3d41e83a	0.04734061
209	0xbd72a4dd	-0.059239257
210	0x3c9c6d4e	0.01909509
211	0xbbdbd561	-0.0067087864
212	0x3c8d9fb0	0.017288059
213	0x3cd37867	0.025814248
214	0xbd252aab	-0.040323894
215	0x3d6983d7	0.057010498
216	0xbc4609ae	-0.012087269
217	0x3cf0bdd6	0.029387396
218	0x3d315c38	0.043300837
219	0x3d163d54	0.03667958
220	0x3d0c9d9f	0.034330007
221	0xbd037582	-0.032094486
222	0x3d1d3b7c	0.038386807
223	0x3d20d56b	0.03926603
224	0x3d033337	0.032031264
225	0xbd8f5738	-0.069990575
226	0xbd864ee8	-0.06558019
227	0x3cc1bee0	0.023650587
228	0xbcecf645	-0.028926024
229	0x3cc266dc	0.023730688
230	0x3c4326e5	0.011911129
231	0xbc9a4baf	-0.018834917
232	0x3d189719	0.037253473
233	0x3d088dde	0.03333842
234	0x3ae69516	0.0017592038
235	0xbd76e75c	-0.060279235
236	0x3c82dd2d	0.015974605
237	0xbda2f9f5	-0.07957832
238	0x3d73b8fd	0.05950259
239	0x3d72e831	0.059303466
240	0xbdc07d5c	-0.093989104
241	0xbda7ea47	-0.08198982
242	0x3b987582	0.00465268
243	0xbc34c96e	-0.011034353
244	0xbc57d113	-0.013172406
245	0xbd8bdd9d	-0.06829379
246	0xbd08c66f	-0.033392366
247	0x3c0ec049	0.008712837
248	0x3d1d247d	0.038364876
249	0x3cb141ef	0.021637885
250	0xbc2b99a8	-0.010473646
251	0xbd6724da	-0.05643163
252	0xbd57b0db	-0.052658897
253	0xbad51bd5	-0.0016258905
254	0x3cea1d5e	0.028578456
255	0xbd5ef8f9	-0.054436658

encoder.1.0.conv1.bias f4 [32]
0	0x3d11a77b	0.035560112
1	0x3d5c01e1	0.05371273
2	0x3ce9d428	0.028543547
3	0x3d1c006a	0.038086332
4	0x3d55d8c9	0.052208696
5	0xbd8335e6	-0.06406765
6	0x3d33e433	0.0439188
7	0x3d7e84df	0.062138434
8	0x3d4bac76	0.04972502
9	0xbd5c5fcf	-0.053802308
10	0x3bcb9ed3	0.0062140017
11	0x3cb1fd1d	0.02172714
12	0xbd31f85c	-0.043449745
13	0xbc71fa28	-0.014769115
14	0xbd3c07a7	-0.045905735
15	0xbcf72ac1	-0.030171754
16	0x3d48931a	0.048968412
17	0xbd916559	-0.07099409
18	0x3d83dd04	0.0643864
19	0x3cf0e8eb	0.029407939
20	0xbd0b2c2b	-0.03397767
21	0x3d9cdad9	0.076589294
22	0x3c4c8596	0.012483021
23	0xbd2abf5f	-0.041686412
24	0x3b2802d4	0.0025636451
25	0x3d7306a7	0.059332516
26	0x3ad672b0	0.0016361084
27	0x3d61d74e	0.05513697
28	0x3d0201cd	0.03174
29	0xbcf26aeb	-0.029591998
30	0x3ad059b7	0.0015895878
31	0xbd4263ac	-0.047458336

encoder.1.0.bn2.weight f4 [32]
0	0x3f7dd271	0.99149233
1	0x3f7fa7dd	0.99865514
2	0x3f805592	1.0026114
3	0x3f7cee2a	0.9880091
4	0x3f7130d2	0.9421512
5	0x3f78fbb5	0.97259074
6	0x3f804054	1.0019631
7	0x3f6febcf	0.9371919
8	0x3f803f1b	1.0019258
9	0x3f85b35e	1.0445364
10	0x3f794d94	0.97384
11	0x3f7313a2	0.9495183
12	0x3f83848f	1.0274829
13	0x3f7791ac	0.9670665
14	0x3f735ca8	0.9506326
15	0x3f7d767a	0.99008906
16	0x3f724843	0.9464151
17	0x3f71f7dd	0.94518834
18	0x3f726f3b	0.94700974
19	0x3f74717b	0.9548566
20	0x3f76f1e4	0.96462846
21	0x3f79bd10	0.9755411
22	0x3f8387c0	1.0275803
23	0x3f840c48	1.0316248
24	0x3f771d33	0.9652893
25	0x3f70070e	0.93760765
26	0x3f72c300	0.94828796
27	0x3f80ee95	1.007281
28	0x3f6f2ec6	0.93430746
29	0x3f7414ff	0.9534454
30	0x3f730d21	0.9494191
31	0x3f7b2e07	0.9811711

encoder.1.0.bn2.bias f4 [32]
0	0x3c4fb5fb	0.012677665
1	0xbb9214c0	-0.00445804
2	0xbca4fa58	-0.020138904
3	0xbd17572c	-0.036948368
4	0x3cd2ccda	0.025732446
5	0xbd804ad2	-0.06264271
6	0xbd027ea4	-0.031859055
7	0x3cb46ade	0.022023614
8	0xbd8f7122	-0.07004
9	0xbdb997c0	-0.09062147
10	0xbc013115	-0.007885237
11	0x3cef32e3	0.02919907
12	0xbd826318	-0.06366557
13	0xbd0eeac2	-0.03489185
14	0x3c5947d8	0.013261758
15	0x3a9a4c8a	0.0011772078
16	0x3d1751a5	0.036943097
17	0x3c2affe2	0.010436984
18	0x3b801e2f	0.003909848
19	0x3d3604e0	0.044438243
20	0xbcd94349	-0.026521342
21	0xbc5bb530	-0.013409898
22	0xbe06e906	-0.13174829
23	0xbdeafa72	-0.1147355
24	0xbca40f78	-0.020026907
25	0x3d726d9f	0.059186574
26	0x3d05fe41	0.03271318
27	0xbdb6caf0	-0.08925426
28	0x3dc83b5d	0.09776948
29	0xbd0e45ae	-0.03473442
30	0xbd017e8c	-0.031614825
31	0x3c50e90b	0.012750874

encoder.1.0.bn2.running_mean f4 [32]
0	0x3e8b3648	0.2718985
1	0xbec66b03	-0.38753518
2	0xbd50b798	-0.05095634
3	0xbd74c481	-0.059757713
4	0x3e95de13	0.29270992
5	0xbe0377bc	-0.12838644
6	0xbe3c1a91	-0.1836951
7	0x3e46bc14	0.19407684
8	0x3e042668	0.12905276
9	0xbecb3ac9	-0.39693287
10	0xbec47988	-0.3837397
11	0x3ea76fcb	0.3270248
12	0xbdb9d057	-0.09072941
13	0x3daaabe6	0.08333568
14	0x3f0c61b9	0.5483661
15	0xbe00ed62	-0.12590554
16	0x3eb53074	0.3538853
17	0x3ede1a9a	0.4337967
18	0x3f15954d	0.5843094
19	0xbe09a435	-0.13441546
20	0xbec5dcbb	-0.38644966
21	0xbd4a091b	-0.04932509
22	0x3cad274e	0.021136906
23	0xbe199432	-0.14997938
24	0xbe0bdb66	-0.13657913
25	0x3e53d3bd	0.2068624
26	0x3df26576	0.118357584
27	0xbcdf504a	-0.027259964
28	0x3e9b35a0	0.3031435
29	0xbe25b3c1	-0.16181852
30	0x3df3f0a6	0.119111344
31	0x3b961c7e	0.0045810333

encoder.1.0.bn2.running_var f4 [32]
0	0x3df2e631	0.11860312
1	0x3e2477ef	0.16061376
2	0x3d577b93	0.052608084
3	0x3e700586	0.23439607
4	0x3e1cdb8a	0.15318123
5	0x3e548e4a	0.20757404
6	0x3d8910ef	0.06692683
7	0x3dafcbb0	0.08583772
8	0x3d83ceee	0.06435953
9	0x3e413dd0	0.18871236
10	0x3dc10cbd	0.09426258
11	0x3e834781	0.2564049
12	0x3dbd3c3b	0.09240004
13	0x3e234b48	0.15946686
14	0x3e0433cf	0.12910388
15	0x3ddf242c	0.10895571
16	0x3e94a7f2	0.29034382
17	0x3e904d63	0.2818404
18	0x3e67a13e	0.22620103
19	0x3d2070dd	0.039170135
20	0x3dd58f72	0.10427751
21	0x3e025dc1	0.12731077
22	0x3e4ba0d0	0.19885564
23	0x3e4dedf1	0.20110299
24	0x3df0727f	0.117405884
25	0x3e0a1e05	0.13488014
26	0x3dd5b05a	0.10434027
27	0x3db91048	0.090363085
28	0x3e7d9206	0.24762735
29	0x3dd9c231	0.10632742
30	0x3e17fd23	0.14842658
31	0x3e16d2d5	0.14728864

encoder.1.0.conv2.weight f4 [32, 32, 2, 3]
0	0xbb3436b4	-0.0027498426
1	0x3cbe0797	0.023196978
2	0xbd24b518	-0.040211767
3	0x39f05a6a	0.0004584373
4	0xbccbe9f3	-0.02489183
5	0xbd86be77	-0.06579297
6	0x3da02365	0.07819251
7	0x3d3b24aa	0.045689262
8	0x398660ae	0.00025630504
9	0xbc152b62	-0.009104582
10	0x3c954ede	0.018226083
11	0xbd19bda7	-0.037534382
12	0x3d5b01fd	0.053468693
13	0x3c831596	0.016001504
14	0x3d0c259b	0.03421555
15	0xbd2e8bff	-0.04261398
16	0x3b3d5680	0.002889067
17	0xbd34c531	-0.04413337
18	0x3d28fe4b	0.041258138
19	0x3d0884f6	0.033329926
20	0x3d13afe8	0.03605643
21	0xbd03f245	-0.032213468
22	0xbd6ca279	-0.057772133
23	0xbd27f442	-0.041004427
24	0x3c0a269c	0.008432057
25	0xbce04313	-0.027375733
26	0xbd71bb49	-0.0590165
27	0x3cae2ebd	0.02126252
28	0xbd17c6b6	-0.03705474
29	0x3d13a4c6	0.036045812
30	0xbb2a4e6a	-0.002598668
31	0xbc402e14	-0.011729736
32	0x3bdf52ab	0.0068152747
33	0x3d3862cd	0.0450161
34	0xbd036ffe	-0.032089226
35	0x3d4856cd	0.048910905
36	0xbd21d9a6	-0.039514206
37	0x3d281443	0.041034948
38	0xbd81504c	-0.063141435
39	0xbc204423	-0.00978187
40	0xbd990382	-0.07471372
41	0xbd7182f6	-0.058962785
42	0x3c2e49dc	0.010637727
43	0xbd56fc2e	-0.05248659
44	0xbd70d54a	-0.05879716
45	0xbd195eea	-0.037444033
46	0xbb55caaf	-0.003262203
47	0xbd385aab	-0.045008343
48	0xbd86c63f	-0.06580781
49	0xbd31aac2	-0.043375738
50	0xbce81f94	-0.02833537
51	0xbd8dce31	-0.069240935
52	0xbd8ae69c	-0.067822665
53	0x3ceff781	0.029292824
54	0x39a926c8	0.00032263086
55	0xbcfc9e3a	-0.030837167
56	0x3cbd2bd4	0.023092188
57	0xbc2ec500	-0.010667086
58	0x3db15bf0	0.08660114
59	0x3d00e8dc	0.031472072
60	0x3d11d65d	0.035604823
61	0x3d28fe0d	0.041257907
62	0xbcdf3a73	-0.02724955
63	0x3c4d7e03	0.012542251
64	0xbcac0ce0	-0.021002233
65	0x3baa9580	0.00520581
66	0x3d3e6b31	0.046488944
67	0xbcb6f62f	-0.022334186
68	0xbda57acc	-0.08080062
69	0x3d85cd39	0.06533284
70	0xbd885010	-0.06655896
71	0x3cd8ed31	0.02648029
72	0x3d4debfd	0.050273884
73	0xbc61682f	-0.013757749
74	0x3bcc128a	0.006227796
75	0x3d9820ca	0.07428129
76	0x3d0686d3	0.032843422
77	0xbdd07958	-0.101793945
78	0xbce43d5e	-0.027861293
79	0x3d4ffe6e	0.050779752
80	0x3c57a97d	0.013162968
81	0xbd48a420	-0.048984647
82	0x3c472002	0.012153627
83	0x3c3e726c	0.01162396
84	0x3cefe6c2	0.029284839
85	0x3b4bdeae	0.003110807
86	0xbd21b4e2	-0.039479144
87	0x3d8b0de0	0.06789756
88	0x3cd98559	0.026552843
89	0xbd04bf89	-0.032409225
90	0x3d79771a	0.0609046
91	0xbc65e78a	-0.014032254
92	0x3cd1da5c	0.025616817
93	0x3cedb159	0.02901523
94	0xbd81ddb8	-0.063411176
95	0x3d61414e	0.05499392
96	0xbad6867d	-0.0016366985
97	0x3cd257bc	0.0256766
98	0x3d695101	0.056962017
99	0x3ce35119	0.027748631
100	0xbcaffaa5	-0.021481821
101	0x3c99ca01	0.01877308
102	0xbc84b97a	-0.016201723
103	0xbd6ac152	-0.05731327
104	0x3cd80ede	0.026374277
105	0xbd12b705	-0.035819072
106	0x3d5514f9	0.052021954
107	0xbc2e625f	-0.010643571
108	0x3c3497b4	0.011022497
109	0xbd1ddf44	-0.038543
110	0xbd55ff63	-0.05224551
111	0xbc93faf5	-0.018064002
112	0xbd158898	-0.03650722
113	0xbd245897	-0.04012355
114	0x3d4f675e	0.050635688
115	0x3d468fb0	0.048476875
116	0x3db0f0f7	0.086397104
117	0x3d6cb925	0.057793755
118	0xbd085d88	-0.033292323
119	0xbd0c472d	-0.034247566
120	0x3c91fac6	0.017819773
121	0x3d24de72	0.040251203
122	0x3d421d9e	0.047391526
123	0x3d83c167	0.06433373
124	0xbcc16e6f	-0.02361223
125	0x3b8d06d8	0.0043037944
126	0x3d947686	0.07249169
127	0x3b1d8e55	0.0024041135
128	0x3c514646	0.012773102
129	0xbc8654e7	-0.016397906
130	0x3d00367f	0.03130197
131	0xbd3da4c8	-0.046299726
132	0xbd282ca1	-0.041058186
133	0xbce97f9f	-0.028503237
134	0x3bd49589	0.0064875525
135	0xbd6e5968	-0.058190733
136	0xbc8f4824	-0.017490454
137	0xbbd84e3f	-0.0066011245
138	0x3d312e8b	0.043257277
139	0xbd17bb0c	-0.037043616
140	0xbbc617e6	-0.0060453294
141	0xbd212b83	-0.039348137
142	0xbd5fdd97	-0.054654684
143	0x3b6fa5e9	0.0036567396
144	0x3cfb730b	0.030694505
145	0x3d7cdc17	0.06173333
146	0x3b841285	0.004030528
147	0xbcac6a12	-0.021046672
148	0x3d0f0b6b	0.034923
149	0x3bad577c	0.00528997
150	0xbdab7586	-0.08372025
151	0xbd9a4ee8	-0.075345814
152	0x3d652332	0.055941768
153	0x3d5d2f8c	0.054000422
154	0xbd392b52	-0.04520733
155	0x3c505b39	0.012717062
156	0x3cb14bc5	0.021642575
157	0xbd77e84c	-0.06052427
158	0xbcd374ee	-0.025812592
159	0xbc592ac7	-0.013254828
160	0x3cc9c34a	0.024629254
161	0xbaf89504	-0.0018965309
162	0xbca01a27	-0.01954372
163	0xbcb4a75d	-0.022052461
164	0xbd81673e	-0.0631852
165	0xbc332339	-0.010933691
166	0xbbaccd9b	-0.0052735335
167	0xbd750db5	-0.059827525
168	0x3c94b73f	0.018153785
169	0x3d072c93	0.033001494
170	0xbd802f6b	-0.06259044
171	0x3ae87422	0.0017734806
172	0x3d1a92f8	0.037737817
173	0x3cf8a982	0.030354265
174	0x3c71b47c	0.0147525035
175	0x3d3169ed	0.04331391
176	0x3b49733d	0.0030738853
177	0xbd16fbdb	-0.03686128
178	0x3d170d05	0.03687765
179	0x3cdd9159	0.027046846
180	0xbd4ba335	-0.049716193
181	0x3c5af312	0.013363617
182	0x3cc0c8fe	0.02353334
183	0xbda91024	-0.08255032
184	0x3cc105a2	0.023562256
185	0xbc1a5328	-0.00941924
186	0x3d9454f3	0.07242765
187	0x3d459953	0.048241924
188	0x3db37be9	0.08763868
189	0xbd18b930	-0.037285984
190	0x3d8f8a21	0.07008768
191	0x3d4f3e4a	0.050596513
192	0xbd719879	-0.0589833
193	0xbd4f689d	-0.050636876
194	0xbc3b4365	-0.011429642
195	0xbc9c6990	-0.019093305
196	0x3d5fa7b5	0.054603297
197	0x3c0536c2	0.008130731
198	0x3d88a07b	0.06671234
199	0x3d42d6d3	0.047568154
200	0xbd319860	-0.043358207
201	0xba9f0eb2	-0.0012135117
202	0x3d231469	0.039814387
203	0x3c069f11	0.008216635
204	0xbdc28202	-0.09497453
205	0xbd0a4ac9	-0.033762727
206	0x3d11595c	0.03548561
207	0xbb590918	-0.0033116993
208	0x3d28038c	0.041019008
209	0xbcc16c04	-0.023611076
210	0x3d51b757	0.051200237
211	0x3cd8ae00	0.026450157
212	0x3bc9a192	0.006153294
213	0x3d77f4ad	0.060536075
214	0xbc1bf8b0	-0.009519741
215	0x3d6be9cd	0.057596017
216	0xbb2afee3	-0.0026091866
217	0x3d83cefb	0.06435963
218	0xbd50c376	-0.050967656
219	0x3c789d03	0.015174153
220	0x3cbebad6	0.02328245
221	0xbc7aabe9	-0.015299776
222	0x3d4cfcd9	0.05004582
223	0xbcd65e66	-0.02616806
224	0xbc846c9e	-0.016165074
225	0xbc054729	-0.008134642
226	0xbd5d3f2c	-0.054015324
227	0x3d48bd82	0.049008854
228	0x3d323647	0.043508794
229	0xbd4156fb	-0.04720209
230	0x3bd06406	0.00635958
231	0xbc8bad53	-0.01705042
232	0x3d46b7e6	0.048515223
233	0x3d6f7918	0.058465093
234	0x3cd9ed13	0.026602304
235	0x3cb400b5	0.021972993
236	0xbcc0e4ab	-0.023546537
237	0xbd4d58b0	-0.050133407
238	0xbd70d827	-0.05879989
239	0x3d8bc269	0.0682419
240	0x3db73cb4	0.08947125
241	0x3d7c7883	0.061638366
242	0x3b7dc426	0.003872165
243	0x3cc3aab5	0.02388511
244	0x3d255880	0.040367603
245	0x3d616b53	0.055033993
246	0x3d535b66	0.051600836
247	0x3c00b8d6	0.007856568
248	0x3d89cc06	0.067283675
249	0x3dac03b4	0.08399144
250	0x3d4dfdc2	0.05029083
251	0xbba12551	-0.0049177785
252	0x3d7a9322	0.061175473
253	0x3cfe1909	0.031017797
254	0x3dc59382	0.096472755
255	0x3d176552	0.03696186

encoder.1.0.conv2.bias f4 [32]
0	0xbb8bcb86	-0.0042662052
1	0x3d53b74a	0.05168847
2	0x3d6c9798	0.05776176
3	0x3c1dd295	0.009632726
4	0xbd98a431	-0.07453192
5	0xbd005bbf	-0.031337496
6	0x3d516c57	0.05112871
7	0xbc9ce48b	-0.019151947
8	0x3d10848f	0.035282668
9	0xbcc83423	-0.024438923
10	0x3d490ed1	0.049086396
11	0x3d205af5	0.039149243
12	0x3cd72a02	0.026265148
13	0xbd8e3701	-0.06944085
14	0xbd236117	-0.039887514
15	0x3b9de8c2	0.0048190067
16	0x3c80798b	0.015682956
17	0x3cd8e10e	0.026474502
18	0xbbf459cb	-0.007456993
19	0x3db05333	0.08609619
20	0x3d8ce5fe	0.06879805
21	0x3c746570	0.014916763
22	0x3d13ae8e	0.03605514
23	0xbdbb6c01	-0.091514595
24	0xbc75c8dc	-0.015001502
25	0xbd8d4e72	-0.06899728
26	0xbba73b0b	-0.005103474
27	0xbd14446a	-0.036198057
28	0xbc6ed43c	-0.014576968
29	0xbc01bf73	-0.00791918
30	0xbc84d356	-0.016214054
31	0xbb29a21d	-0.002588398

encoder.2.0.bn1.weight f4 [32]
0	0x3f800000	1.0
1	0x3f800000	1.0
2	0x3f800000	1.0
3	0x3f800000	1.0
4	0x3f800000	1.0
5	0x3f800000	1.0
6	0x3f800000	1.0
7	0x3f800000	1.0
8	0x3f800000	1.0
9	0x3f800000	1.0
10	0x3f800000	1.0
11	0x3f800000	1.0
12	0x3f800000	1.0
13	0x3f800000	1.0
14	0x3f800000	1.0
15	0x3f800000	1.0
16	0x3f800000	1.0
17	0x3f800000	1.0
18	0x3f800000	1.0
19	0x3f800000	1.0
20	0x3f800000	1.0
21	0x3f800000	1.0
22	0x3f800000	1.0
23	0x3f800000	1.0
24	0x3f800000	1.0
25	0x3f800000	1.0
26	0x3f800000	1.0
27	0x3f800000	1.0
28	0x3f800000	1.0
29	0x3f800000	1.0
30	0x3f800000	1.0
31	0x3f800000	1.0

encoder.2.0.bn1.bias f4 [32]
0	0x00000000	0.0
1	0x00000000	0.0
2	0x00000000	0.0
3	0x00000000	0.0
4	0x00000000	0.0
5	0x00000000	0.0
6	0x00000000	0.0
7	0x00000000	0.0
8	0x00000000	0.0
9	0x00000000	0.0
10	0x00000000	0.0
11	0x00000000	0.0
12	0x00000000	0.0
13	0x00000000	0.0
14	0x00000000	0.0
15	0x00000000	0.0
16	0x00000000	0.0
17	0x00000000	0.0
18	0x00000000	0.0
19	0x00000000	0.0
20	0x00000000	0.0
21	0x00000000	0.0
22	0x00000000	0.0
23	0x00000000	0.0
24	0x00000000	0.0
25	0x00000000	0.0
26	0x00000000	0.0
27	0x00000000	0.0
28	0x00000000	0.0
29	0x00000000	0.0
30	0x00000000	0.0
31	0x00000000	0.0
